logs/tasamp/flops/ybye5u31/checkpoints/epoch=4-step=10960.ckpt (torch, 325158 bytes, 87 tensors)

model.encoder.weight f4 [32, 3]
0	0x3f99ffa8	1.2031145
1	0x3e9d2fad	0.30700436
2	0x3e8a6cce	0.27036136
3	0xbfcb6a3b	-1.5891794
4	0xbe310003	-0.1728516
5	0xbe6716b2	-0.22567251
6	0x3fd3e8f0	1.6555462
7	0x3ea8d80b	0.32977328
8	0x3d747912	0.059685774
9	0x3fcd4a37	1.6038274
10	0xbece516e	-0.402965
11	0xbdbc18f3	-0.09184446
12	0xbdfc7962	-0.123278394
13	0xbd69bee1	-0.057066802
14	0x3ea6f3c3	0.3260785
15	0xbf21364a	-0.62973464
16	0x3e17547b	0.1477832
17	0xbcc0045e	-0.023439582
18	0xbe2ac9b0	-0.166785
19	0x3d5cf330	0.05394286
20	0x3e8af010	0.27136278
21	0xbf432718	-0.7623153
22	0xbceb74e8	-0.028742269
23	0x3e7df35e	0.24799868
24	0x3ff0899d	1.8791996
25	0xbe53508f	-0.206362
26	0x3dbd8392	0.09253611
27	0x3ebcd384	0.36880124
28	0xbea82108	-0.328377
29	0xbe73c1ce	-0.238044
30	0xbf7c3d23	-0.9853079
31	0xbd5db6cb	-0.054129403
32	0x3d40d940	0.047082186
33	0xbf8b45ac	-1.0880637
34	0x3dda3b8c	0.10655889
35	0x3ef233d7	0.47305176
36	0x3eed8f22	0.46398264
37	0x3e0b76be	0.13619515
38	0xbe190286	-0.14942369
39	0x3f9fd0ec	1.2485633
40	0xbdcdc60d	-0.10047541
41	0x3ed2070e	0.41021007
42	0xbfac80a9	-1.3476764
43	0x3d34b889	0.0441213
44	0x3d953004	0.07284549
45	0x3faef659	1.3668929
46	0xba448a1f	-0.0007497388
47	0xbcc66efd	-0.024222845
48	0xbe01a95f	-0.12662266
49	0x3e871eac	0.26390588
50	0x3eb6dc01	0.35714725
51	0x3f8e0570	1.1095409
52	0xbe769cc4	-0.24083239
53	0x3eb7a4d3	0.35867938
54	0x3fe71b4a	1.8055203
55	0x3e498895	0.19681008
56	0xbc988600	-0.018618584
57	0xbfc3dd3b	-1.5301889
58	0xbe2132eb	-0.1574208
59	0xbeeb2ae4	-0.4593116
60	0x3fc9813a	1.5742562
61	0x3e937153	0.28797397
62	0x3e157525	0.14595468
63	0xbfb7a8d6	-1.43484
64	0x3e1d1e13	0.15343504
65	0xbe7335b0	-0.23750949
66	0xbf001512	-0.5003215
67	0xbe95f5e2	-0.29289156
68	0x3eb1471b	0.34624562
69	0xbf45dd09	-0.772904
70	0x3ebdf0cf	0.37097785
71	0x3e944ff6	0.28967255
72	0xbf9a756c	-1.2067084
73	0x3eb6dc0c	0.35714757
74	0x3eb40d72	0.35166508
75	0x3fbeeaaf	1.491537
76	0xbedfcf4d	-0.43712845
77	0xbda314f3	-0.0796298
78	0xbfdc2672	-1.7199233
79	0xbd03dfd4	-0.03219588
80	0x3ecc86e9	0.39946678
81	0x3e8553f7	0.26040623
82	0xbe943aa6	-0.28950995
83	0x3eb74848	0.35797334
84	0x3f601931	0.8753844
85	0x3e7cf002	0.2470093
86	0xbdaf236a	-0.085516766
87	0xbfb78dd1	-1.4340154
88	0x3da4ec80	0.08052921
89	0x3cf8bb12	0.03036264
90	0xbccea4cb	-0.025225064
91	0x3c2ec3bb	0.010666783
92	0x3e94ee1c	0.29087913
93	0xbfcff292	-1.6245902
94	0xbeb8f35c	-0.36123168
95	0xbebf822e	-0.37404007

model.encoder.bias f4 [32]
0	0xbee1b132	-0.44080502
1	0x3f15fdf5	0.5859063
2	0xbe0f6817	-0.14004551
3	0xbcd91c4d	-0.026502753
4	0x3f163f4f	0.5869035
5	0x3dd817db	0.10551425
6	0xbeaeb1ff	-0.34120175
7	0xbf6eda0d	-0.9330147
8	0x3f2f4802	0.6846925
9	0x3f89cdf5	1.0765978
10	0x3f92d5f3	1.1471542
11	0x3f447d1b	0.76753396
12	0x3fb16e8c	1.3861861
13	0xbf79ef87	-0.97631115
14	0xbc52bac4	-0.012861911
15	0xbe361337	-0.17780767
16	0x3f22eb17	0.6363997
17	0xbef9d791	-0.48797277
18	0x3efd433b	0.49465355
19	0xbeccc8e8	-0.3999703
20	0xbf574cc9	-0.8410154
21	0x3eda28c2	0.4260922
22	0x3fd4acc9	1.661523
23	0xbe7ae911	-0.2450297
24	0x3f783ebe	0.96970737
25	0x3f1a0a1b	0.6017167
26	0x3dcfab0e	0.10140048
27	0xbf85e86f	-1.0461558
28	0xbf42ecb2	-0.7614242
29	0x3f060b01	0.5236054
30	0xbf8d722c	-1.1050467
31	0x3f51f03a	0.8200718

model.decoder.readout.mlp.0.affinity.weight f4 [32, 32]
0	0xbad3f826	-0.0016171976
1	0x3e19bc11	0.15013148
2	0xbdbf70d2	-0.09347691
3	0x3e925a86	0.2858469
4	0x3ddbd233	0.10733452
5	0xbde45e43	-0.111507915
6	0x3d9c9d57	0.07647198
7	0x3c7bb5fb	0.015363212
8	0x3dc8ed5d	0.098108985
9	0x3c5376f0	0.012906775
10	0xbe5af8cd	-0.21383972
11	0x3c0912b4	0.008366276
12	0xbdd7af51	-0.10531486
13	0x3c994d43	0.0187136
14	0xbdc30dd2	-0.095241204
15	0x3ddce7d4	0.10786405
16	0x3cc6a24c	0.024247311
17	0xbd62f43e	-0.05540871
18	0x3e191653	0.14949922
19	0x3e3056e4	0.17220646
20	0xbe1742f0	-0.14771628
21	0xbc2c1b18	-0.0105045065
22	0x3d745207	0.05964854
23	0xbd8d01a2	-0.06885077
24	0xbd259423	-0.040424477
25	0xbda11409	-0.078651495
26	0xbcce2fe1	-0.025169315
27	0x3dcc4523	0.09974124
28	0xbe3f385b	-0.18673842
29	0xbb8de978	-0.00433081
30	0x3c61185d	0.013738719
31	0x3d674462	0.0564617
32	0x3d9de130	0.07708967
33	0x3da970a8	0.082734406
34	0x3d4920c8	0.04910353
35	0x3d92067d	0.07130144
36	0xbe0fd53d	-0.14046188
37	0x3b52fdb6	0.003219468
38	0xbdfa99c4	-0.1223636
39	0xbe0a678d	-0.13516064
40	0xbddda82a	-0.108230904
41	0x3da1a74b	0.07893237
42	0x3e2d6872	0.16934374
43	0x3d202a35	0.03910275
44	0x3d55eaca	0.052225865
45	0xbe417f31	-0.18896176
46	0x3e858921	0.26081184
47	0xbe7a40b5	-0.24438746
48	0xbe11b10f	-0.14227699
49	0x3d352150	0.044221222
50	0x3d02bddd	0.03191935
51	0xbe37d202	-0.17951205
52	0xbc8f9483	-0.01752687
53	0x3da70df2	0.08156957
54	0x3d97475e	0.07386659
55	0xbcd39cba	-0.025831569
56	0xbd88ad19	-0.06673641
57	0x3d9e0831	0.07716406
58	0x3e2eb699	0.17061843
59	0xbd823839	-0.0635838
60	0x3e82f80b	0.25579867
61	0xbdf9e1fa	-0.12201305
62	0x3e0a6141	0.13513662
63	0x3d093774	0.03350015
64	0xbe0cd27a	-0.13752165
65	0x3e8f3251	0.27968076
66	0x3d299aae	0.04140728
67	0x3ed23956	0.4105937
68	0xbe7b1c2a	-0.24522462
69	0xbe3d39e5	-0.18479116
70	0x3e067db1	0.13133885
71	0xbe8470fc	-0.2586745
72	0x3d43b5c5	0.04778077
73	0x3cbb48ae	0.022861805
74	0xbeb1fe2f	-0.3476424
75	0x3e554af7	0.20829378
76	0xbe8eedd6	-0.2791583
77	0xbc8d7985	-0.01726986
78	0x3b31b5a2	0.0027116318
79	0x3e36b91b	0.1784405
80	0x3cadb00c	0.02120211
81	0xbe65d230	-0.22443461
82	0xbc90cf9b	-0.017677119
83	0x3ded8366	0.11597328
84	0xbe0f6c6c	-0.14006203
85	0x3e17cffb	0.14825432
86	0x3e08c7ec	0.13357514
87	0x3e368ebd	0.17827888
88	0x3ded99ae	0.11601578
89	0xbe81cee5	-0.2535316
90	0x3cd06436	0.02543841
91	0x3ebb8124	0.36621964
92	0xbe4defda	-0.20111027
93	0x3e6505c3	0.22365479
94	0x3c827b88	0.015928045
95	0x3cfc93c3	0.030832177
96	0x3e1c1646	0.15242872
97	0xbe17d9f4	-0.14829236
98	0xbd1ad91c	-0.037804708
99	0xbdc94983	-0.098284744
100	0xbe01366f	-0.12618421
101	0x3dc519fb	0.09624096
102	0x3d8f2c39	0.06990857
103	0x3e090e59	0.1338438
104	0x3df62d53	0.12020364
105	0xbd99ae9d	-0.07504008
106	0x3dfed6e2	0.124433294
107	0x3d6f311d	0.058396447
108	0xbd24f9a9	-0.040277157
109	0x3db65cc7	0.089044146
110	0x3e9fe739	0.31231096
111	0xbe973ee1	-0.2954016
112	0xbcc812f6	-0.024423104
113	0xbd85a11f	-0.06524872
114	0xbdd43467	-0.103615575
115	0xbdca7dab	-0.098872505
116	0x3da885ce	0.08228646
117	0x3c97351f	0.018457947
118	0xbda18943	-0.07887509
119	0xbd5f040d	-0.054447223
120	0xbcfcfbaf	-0.03088173
121	0x3e4ab4a1	0.19795467
122	0xbdbbf598	-0.09177703
123	0xbcd72f4f	-0.026267676
124	0x3d88e33c	0.066839665
125	0x3e07ed1b	0.13274042
126	0x3e142517	0.14467274
127	0x3b697eac	0.003562848
128	0xbdfee30f	-0.12445652
129	0x3e6a674f	0.22890972
130	0xbd5f5a5b	-0.05452953
131	0x3e05b824	0.13058525
132	0x3e0a3bfa	0.13499442
133	0x3c17c983	0.009264353
134	0x3de5b0c7	0.11215358
135	0x3dbb927c	0.09158799
136	0xba9dae06	-0.0012030012
137	0x3e2d22b5	0.16907771
138	0xbd9f96fe	-0.07792471
139	0xbd2951f2	-0.041337915
140	0x3db79c82	0.08965398
141	0x3d991313	0.07474341
142	0xbea21206	-0.31654376
143	0x3e992f0c	0.29918706
144	0xbe3d9631	-0.18514325
145	0x3d6c665b	0.0577148
146	0x3dbb56c5	0.09147409
147	0x3e4323eb	0.1905667
148	0xbdd70edc	-0.10500881
149	0x3e34428f	0.17603515
150	0x3e42b7be	0.19015405
151	0x3daf7d8e	0.085688695
152	0x3d7e52ec	0.0620908
153	0xbe8558f4	-0.26044428
154	0x3dfddbed	0.12395463
155	0x3e014dc3	0.1262732
156	0xbe27e496	-0.16395792
157	0x3cd7b05c	0.026329212
158	0xbd2514a4	-0.040302888
159	0xbcdb722b	-0.026787838
160	0xbe236012	-0.15954617
161	0xbcea20f8	-0.028580174
162	0xbda8d392	-0.08243479
163	0x3e4d0042	0.2001963
164	0xbdce9e92	-0.10088839
165	0xbdab4a04	-0.08363727
166	0xbcf87ffa	-0.030334461
167	0xbe3badde	-0.18328044
168	0x3e17abe7	0.1481167
169	0xbd03279f	-0.032020207
170	0xbe8bbc1b	-0.2729195
171	0x3e010b1b	0.12601893
172	0xbda274d7	-0.07932442
173	0xbdbc70dd	-0.092012145
174	0x3c01a63e	0.00791317
175	0x3e96c0b4	0.29443896
176	0xbb7d0aca	-0.0038611167
177	0xbe755ca0	-0.23961115
178	0x3e2e1117	0.16998707
179	0x3e448282	0.1919041
180	0x3d50afb2	0.050948806
181	0x3de98914	0.11403099
182	0xbca5a176	-0.020218592
183	0x3d861a53	0.0654799
184	0x3e30c66b	0.1726319
185	0x3cc1d0b6	0.023659091
186	0xbca87dbc	-0.020567767
187	0xbc6af1f9	-0.014339917
188	0xbe2b103f	-0.16705416
189	0xbd41ceb6	-0.047316276
190	0x3df7f2a2	0.121068254
191	0xbd2886f8	-0.04114434
192	0xbd4f2d53	-0.050580334
193	0xbe19d123	-0.15021186
194	0xbde71b3b	-0.11284491
195	0xbd1d4bda	-0.038402416
196	0x3dc1433b	0.09436651
197	0xbc42617f	-0.011864065
198	0x3d2e4c10	0.042553008
199	0x3e1c2e5c	0.1525206
200	0xbe007879	-0.12545957
201	0x3d22560c	0.039632842
202	0x3de42b11	0.11141027
203	0xbdeee8fa	-0.116655305
204	0xbda60fb5	-0.08108465
205	0x3d383c5e	0.044979446
206	0xbcb486ef	-0.022036998
207	0xbde26589	-0.110545225
208	0x3e14109d	0.14459462
209	0xbb69f217	-0.0035697275
210	0xbdb455b7	-0.08805411
211	0xbe3a4aed	-0.18192644
212	0x3cd964fa	0.026537407
213	0xbda07dd2	-0.07836498
214	0x3d2d5024	0.042312756
215	0x3d2e799f	0.042596456
216	0x3ce5a2e3	0.028031772
217	0x3c8c4ac7	0.0171255
218	0x3d8f81b2	0.07007159
219	0xbd0848ab	-0.033272427
220	0x3db77380	0.08957577
221	0xbd8bbc18	-0.068229854
222	0xbdaaebf2	-0.08345784
223	0xbdf6783d	-0.120346524
224	0x3c8f678b	0.017505428
225	0x3e542969	0.20718922
226	0xbd9aff33	-0.07568207
227	0x3ea97de1	0.3310385
228	0x3e1b453d	0.15163131
229	0xbc8bcaee	-0.017064538
230	0x3e1b0936	0.15140232
231	0xbd85a1d6	-0.065250084
232	0x3e0e0a6d	0.13871165
233	0x3dc3945b	0.09549781
234	0xbdfe4a43	-0.12416508
235	0x3ea5774e	0.32317585
236	0xbe50de52	-0.20397308
237	0x3da1e47c	0.07904908
238	0x3cade081	0.021225216
239	0x3d58e938	0.05295679
240	0xbe4ca37f	-0.19984244
241	0xbe388f60	-0.18023443
242	0x3db1d3ab	0.086829506
243	0x3e6c4c2a	0.2307593
244	0xbdbb6f45	-0.09152082
245	0xbd17dd46	-0.037076257
246	0xbd6b2bf6	-0.05741497
247	0x3de10c4c	0.109886736
248	0xbd35386a	-0.044243254
249	0x3b0ae650	0.0021194406
250	0x3d277348	0.040881425
251	0x3e088fdc	0.13336128
252	0x3d5d4731	0.05402297
253	0x3e2a0f6c	0.16607445
254	0xbd3d5fc1	-0.046233896
255	0x3b057204	0.0020362148

model.decoder.readout.mlp.0.affinity.bias f4 [32]
0	0x3e695611	0.22786738
1	0xbd43f611	-0.04784209
2	0xbc9d4d7d	-0.019201988
3	0xbd85660f	-0.06513607
4	0x3d8638c9	0.065538
5	0x3b2c55aa	0.0026296177
6	0x3d4dc3f4	0.050235704
7	0x3c964af2	0.018346284
8	0xbe05c1f3	-0.13062267
9	0xbe714543	-0.23561577
10	0xbd9ea14f	-0.07745611
11	0xbba01407	-0.0048852
12	0xbba672bc	-0.0050795954
13	0xbcbe107b	-0.023201218
14	0x3de63979	0.11241431
15	0xbb18faf1	-0.0023342932
16	0x3ce4c935	0.027927974
17	0xbe5f493b	-0.21805279
18	0xbe3c033c	-0.18360609
19	0xbcf7b1b3	-0.0302361
20	0x3d4f53f8	0.05061719
21	0x3e43dc6d	0.19127055
22	0x3d3b2314	0.04568775
23	0xbe2694f0	-0.16267753
24	0x3d4fc76c	0.050727293
25	0xbe7da9fb	-0.24771874
26	0x3e7cdfd9	0.24694766
27	0xbdaa2832	-0.08308448
28	0xbdf14209	-0.11780173
29	0x3e0c976c	0.13729638
30	0xbda235a5	-0.07920388
31	0x3ca8cba3	0.020604914

model.decoder.readout.readout.weight f4 [1, 32]
0	0x3dc0f256	0.09421222
1	0xbe572507	-0.21010219
2	0x3e956bf3	0.2918392
3	0xbd2fe4e4	-0.042942896
4	0x3e6f5281	0.23371316
5	0x3e2a0b99	0.16605987
6	0x3b1c9fc6	0.0023898943
7	0x3e43a004	0.1910401
8	0xbda0284b	-0.07820185
9	0xbe636661	-0.22207023
10	0xbde1d948	-0.11027771
11	0xbda01ce2	-0.07818009
12	0xbdf64189	-0.120242186
13	0xbe0b9698	-0.13631666
14	0x3e37066e	0.17873546
15	0xbcb60a75	-0.022221783
16	0x3e2d5ac3	0.16929154
17	0xbca4ab51	-0.020101221
18	0xbdf49b98	-0.1194374
19	0xbe316bc9	-0.17326273
20	0xbe54fff3	-0.20800762
21	0x3ea97f2d	0.3310484
22	0x3e5bcf0c	0.21465701
23	0xbb5392e9	-0.003228361
24	0xbccd5ef6	-0.025069695
25	0xbe4e6938	-0.20157325
26	0x3e95ac91	0.2923322
27	0x3dfe306e	0.12411581
28	0xbe579df9	-0.21056356
29	0x3e17b709	0.14815916
30	0xbe0b9159	-0.13629664
31	0x3ab7e9ac	0.0014031432

model.stmp_conv.cells.0.forget_gate.msg_mlps.0.0.weight f4 [32, 128]
0	0x3d7805e5	0.060552496
1	0x3d86a183	0.06573775
2	0xbc980004	-0.018554695
3	0x3d950099	0.072755046
4	0xbc8e2853	-0.017353212
5	0x3c82ece1	0.015982093
6	0xbd1df088	-0.038559467
7	0x3d3e8539	0.04651377
8	0x3d8efd83	0.06981947
9	0xbd6dfecb	-0.058104318
10	0x3d8cfc61	0.06884075
11	0x3c72dd13	0.014823216
12	0x3d6fad20	0.058514714
13	0x3c2fbd2b	0.0107262535
14	0x3d1c6d18	0.038189977
15	0xbc3736c6	-0.011182493
16	0x3d7a15a5	0.061055798
17	0x3c3fcd7b	0.011706705
18	0xbd17721b	-0.036974054
19	0x3ca5617c	0.020188086
20	0xbd1577d9	-0.03649125
21	0xbc182da4	-0.009288225
22	0xbd03c2d5	-0.03216823
23	0x3d573410	0.052539885
24	0xbd800a25	-0.06251935
25	0xbd158e8f	-0.036512908
26	0xbcb7358e	-0.022364404
27	0xbd430ece	-0.04762154
28	0x3bf4f358	0.007475298
29	0xbda034c9	-0.07822568
30	0x3d927d0e	0.071527585
31	0xbd89c932	-0.06727828
32	0x3d7a73ef	0.06114572
33	0x3c57f359	0.013180577
34	0xbcd2ac71	-0.025716992
35	0x3d48778f	0.048942145
36	0x3c4a3c97	0.012343547
37	0x3d830e1d	0.06399176
38	0x3c0ddb60	0.00865826
39	0xbccc9e71	-0.024977894
40	0x3cae536f	0.021280019
41	0xbcaff1c3	-0.021477586
42	0x3d088746	0.03333213
43	0x3d90d1cd	0.07071266
44	0x3d3b8720	0.045783162
45	0xbd0dd293	-0.034624647
46	0x3d3b44fc	0.045720086
47	0x3c682e0b	0.014171134
48	0x3d24bf1c	0.04022132
49	0xbd45ba70	-0.048273504
50	0xbda09135	-0.07840196
51	0xbcfaad47	-0.030600203
52	0xbd78d41b	-0.060749155
53	0x3d851872	0.06498803
54	0x3cbae0f7	0.02281235
55	0x3d066014	0.03280647
56	0x3ccd31f2	0.02504823
57	0xbab49668	-0.0013777735
58	0x3d7de257	0.061983433
59	0xbd667fab	-0.056274097
60	0x3ba3686a	0.0049868124
61	0xbd5d6bd3	-0.054057907
62	0x3cc8107c	0.024421923
63	0xbcdf70cf	-0.027275471
64	0x3cc6ceb0	0.024268478
65	0xbc872cbf	-0.016500829
66	0x3d868822	0.06568934
67	0xbd4046fe	-0.046942703
68	0xbd417a10	-0.04723555
69	0xbd417d0d	-0.0472384
70	0x3d91e49d	0.07123683
71	0x3cd8381e	0.026393946
72	0x3d9c148e	0.07621108
73	0xbd85dcf7	-0.06536286
74	0xbda0e2a6	-0.0785573
75	0xbd7dce02	-0.061964042
76	0xbd5a39c9	-0.053277764
77	0x3d036600	0.032079697
78	0x3ce85313	0.028359925
79	0x3d86c742	0.06580974
80	0xbd27887f	-0.040901657
81	0xbd5d271b	-0.053992372
82	0x3d2c1fbb	0.042022448
83	0xbd03209d	-0.032013524
84	0x3d44e416	0.048069082
85	0xbc99f70a	-0.018794555
86	0x3d399380	0.045306683
87	0xbd7c0e3b	-0.06153701
88	0xbd23b618	-0.03996858
89	0x3cc5cf08	0.024146572
90	0x3c892a8e	0.016743924
91	0xbca56b94	-0.020192899
92	0x3d415ed6	0.047209583
93	0x3d5c8946	0.05384185
94	0xbd6b4077	-0.057434525
95	0xbd2d30cd	-0.04228287
96	0x3d9485d7	0.072520904
97	0xbcdaee7d	-0.026725048
98	0xbce6044d	-0.028078223
99	0xbd9cf2ac	-0.076634735
100	0xbd39c768	-0.045356184
101	0x3ca2138c	0.019784711
102	0xbc2b4757	-0.01045402
103	0xbd6b7bb2	-0.057491012
104	0x3af3817c	0.0018578018
105	0xbd5d98bd	-0.05410074
106	0xbd899cf3	-0.06719389
107	0xbd32a3ab	-0.043613117
108	0xbd8df683	-0.06931784
109	0xbd4e8ff3	-0.05043025
110	0x3da223d5	0.07916991
111	0x3c751763	0.014959189
112	0x3cc7f090	0.024406701
113	0xbd9748f4	-0.073869616
114	0xbd551006	-0.052017234
115	0xbcd7f643	-0.026362544
116	0x3c4ae9b0	0.012384817
117	0xbd8eba3f	-0.069691174
118	0xbd0bc779	-0.03412578
119	0xbd42364a	-0.047415055
120	0x39662668	0.00021948817
121	0xbcf16dad	-0.029471243
122	0xbbb3d763	-0.0054883226
123	0xbd5bd405	-0.053668994
124	0xbd5eac12	-0.054363318
125	0xbd3d42c4	-0.04620625
126	0xbcde169d	-0.027110392
127	0xbd800672	-0.06251229
128	0x3d880102	0.06640817
129	0xbc80c3ee	-0.015718427
130	0x3d8b8f12	0.06814398
131	0x3cca28af	0.024677603
132	0xbd895ae4	-0.06706789
133	0x3d608082	0.054810055
134	0xbcb284c9	-0.021791833
135	0xbcf8b555	-0.030359903
136	0xbd86a415	-0.06574265
137	0xbda141c2	-0.078738704
138	0x3cb9a214	0.022660293
139	0xbc8dbaf9	-0.01730107
140	0x3cfc9a5e	0.030835327
141	0xbd851d9e	-0.0649979
142	0x3d70d9cf	0.05880147
143	0xbd6e2227	-0.05813804
144	0xbc60110a	-0.013675937
145	0x3c8784c3	0.016542798
146	0x3d277a1b	0.040887933
147	0x3d82f301	0.063940056
148	0x3d93c302	0.07214929
149	0xbd809d3e	-0.062799916
150	0x3ca34967	0.019932462
151	0xbd0b8905	-0.03406622
152	0xbc0e3345	-0.008679216
153	0xbd72d0e7	-0.059281256
154	0x3d93bed2	0.072141305
155	0xbd6e1993	-0.05812986
156	0x3d2d614e	0.042329125
157	0x3ce404e2	0.02783436
158	0x3cd2d636	0.02573691
159	0xbd2f6420	-0.042820096
160	0x3d936f6f	0.07198989
161	0x3c8e93d1	0.017404469
162	0x3c26ed31	0.010188387
163	0xbd8ef18f	-0.069796674
164	0x3d082ea9	0.033247624
165	0xbc42ac13	-0.011881846
166	0xbd149e2a	-0.03628365
167	0x3d8b52c0	0.06802893
168	0x3c90a726	0.017657828
169	0xbd337cfb	-0.043820363
170	0xbd243214	-0.04008682
171	0xbb77e0c7	-0.0037823187
172	0x3d352332	0.044223018
173	0xbca5cb9b	-0.020238688
174	0xbd391948	-0.045190126
175	0xbcde2ec1	-0.027121903
176	0xbd725bba	-0.05916951
177	0x3ce763d7	0.02824585
178	0x3d7b1aeb	0.061304968
179	0xbd98b496	-0.07456319
180	0x3c96b05b	0.01839464
181	0x3d27964a	0.04091481
182	0x3c6b4c6c	0.014361482
183	0xbce70fae	-0.028205719
184	0x3d295281	0.041338447
185	0x3d2a7b19	0.0416213
186	0x3cf29c47	0.029615534
187	0xbc640569	-0.0139173055
188	0xbcabcea4	-0.020972557
189	0x3c0ad29e	0.008473067
190	0xbc653b30	-0.013991162
191	0xbcc15941	-0.02360213
192	0x3d4f5d2f	0.050625976
193	0x3d8b657b	0.06806465
194	0xbc00762e	-0.007840676
195	0xbc9144a8	-0.017732933
196	0x3a977b77	0.0011557181
197	0xbb9af5a5	-0.00472899
198	0x3c9bfb72	0.019040797
199	0x3cb5d1d6	0.022194784
200	0xbd935285	-0.07193474
201	0xbcef707b	-0.02922844
202	0x3d88988e	0.066697225
203	0x3cfcc0bc	0.030853622
204	0xbb81154c	-0.0039393064
205	0xbd43964e	-0.047750764
206	0xbd46798e	-0.048455767
207	0xbd914c1d	-0.070945956
208	0xbcd37d52	-0.025816593
209	0x3cdb1bd5	0.02674667
210	0x3d4ed9b3	0.050500583
211	0x3d15c747	0.036567
212	0xbd8f6120	-0.07000947
213	0xbd431645	-0.04762866
214	0xbc4cc985	-0.012499218
215	0x3d9ce880	0.07661533
216	0x3c3bb695	0.011457105
217	0xbca80628	-0.020510748
218	0x3d06369d	0.032766927
219	0xbcf7203e	-0.030166741
220	0xbd51f99b	-0.051263433
221	0x3d6cc839	0.057808135
222	0xbd138240	-0.036012888
223	0xbc8210cc	-0.01587715
224	0xbda15c8c	-0.0787898
225	0x3d591d9a	0.053006746
226	0x3d75c85d	0.060005534
227	0x3cec7669	0.028865056
228	0xbd62336c	-0.05522482
229	0xbda01609	-0.07816703
230	0xbd83bd1e	-0.064325556
231	0x3d71e9ef	0.059060987
232	0x3d1bc001	0.038024906
233	0x3d887e7d	0.06664751
234	0x3d29f288	0.04149106
235	0x3ca435dd	0.020045215
236	0xba4b50e2	-0.0007755888
237	0xbd76b763	-0.060233485
238	0xbd8af8dc	-0.067857474
239	0xbd97b752	-0.074080124
240	0x3d04cd03	0.032422077
241	0xbd1f45f0	-0.038885057
242	0xbc829386	-0.015939485
243	0xbd3ab293	-0.045580458
244	0xbc6c763c	-0.014432486
245	0xbd645470	-0.05574459
246	0xbd53f93c	-0.05175136
247	0x3cd7383d	0.026271934
248	0xbcc0d32c	-0.023538195
249	0x3d484547	0.048894193
250	0xbcd0255b	-0.025408437
251	0xbd6df9b9	-0.058099482
252	0xbc64f3f7	-0.013974181
253	0xbd1d418a	-0.03839258
254	0xbcc68008	-0.024230972
255	0xbd9a6aba	-0.07539888

model.stmp_conv.cells.0.forget_gate.msg_mlps.0.0.bias f4 [32]
0	0xbd65d25c	-0.056108817
1	0x3d828e34	0.06374779
2	0x3d88cc93	0.066796444
3	0x3d7f6806	0.062355064
4	0xbce32260	-0.027726352
5	0x3d49e7f7	0.049293485
6	0xbd8785c2	-0.06617309
7	0x3d14d9d9	0.03634057
8	0xbc202c09	-0.009776124
9	0xbd866a59	-0.06563253
10	0xbd822d2b	-0.06356271
11	0xbd97c9af	-0.07411515
12	0x3c732a0d	0.014841569
13	0xbceaab42	-0.028646115
14	0xbd15696d	-0.036477495
15	0x3d9a6b19	0.075399585
16	0xbcc5adb6	-0.024130683
17	0x3cdad7f1	0.026714297
18	0xbc647065	-0.013942813
19	0x3d43a4b1	0.047764484
20	0x3cc19dff	0.023634909
21	0x3d4d6f73	0.050155114
22	0x3ca96af9	0.020680891
23	0xbc8e330f	-0.017358331
24	0x3d8f5c65	0.07000045
25	0xbbb90510	-0.0056463555
26	0xbd423434	-0.047413066
27	0x3cc9e7ba	0.024646629
28	0xbc1d766b	-0.009610753
29	0xbd70976b	-0.058738153
30	0x3c29bfba	0.010360653
31	0xbc96c0c6	-0.018402468

model.stmp_conv.cells.0.forget_gate.msg_mlps.0.2.weight f4 [32, 32]
0	0xbd8130bf	-0.06308126
1	0xbd9ad431	-0.075600035
2	0xbd8a0dd8	-0.06740922
3	0xbd835f8e	-0.0641471
4	0x3c7f0281	0.015564562
5	0x3e1cb350	0.15302777
6	0xbdbe25a9	-0.09284527
7	0xbd9757a4	-0.07389763
8	0xbdd9773f	-0.106184475
9	0xbbc4f535	-0.0060106763
10	0x3c35f6a7	0.01110617
11	0xbddeabe9	-0.10872633
12	0x3d942e4e	0.072353944
13	0xbe1179ac	-0.1420657
14	0x3e1620df	0.14660977
15	0x3cf433b1	0.029809805
16	0xbc82c85b	-0.015964678
17	0xbd685162	-0.056718238
18	0x3d91a89e	0.07112239
19	0x3dece4d6	0.115670845
20	0xbdd43125	-0.10360936
21	0xbd22a163	-0.03970469
22	0x3deed161	0.116610296
23	0xbcf32f49	-0.029685633
24	0xbdeee0ce	-0.11663972
25	0xbd5081f4	-0.050905183
26	0x3bb34bea	0.005471696
27	0xbcf2408d	-0.029571796
28	0xbdde50d1	-0.10855258
29	0xbdcb3d0b	-0.099237524
30	0x3d2f6f0e	0.04283052
31	0x3dde96e3	0.10868623
32	0x3e138f7a	0.144102
33	0xbc92abdc	-0.017904215
34	0x3d79a307	0.06094649
35	0xbe00d339	-0.12580575
36	0x3dacddb5	0.08440725
37	0x3e1afec8	0.15136254
38	0x3da8ef31	0.08248747
39	0xbd8043bf	-0.062629215
40	0x3e043f7e	0.12914845
41	0xbe199f06	-0.15002069
42	0xbc9bb621	-0.019007744
43	0xbd20c279	-0.039247964
44	0xbe21cb5e	-0.15800235
45	0xbdb9111d	-0.09036467
46	0xbdec5cc4	-0.11541131
47	0x3d2e61d9	0.042573784
48	0xbc57dfec	-0.013175946
49	0x3d94fded	0.07274995
50	0xbd11f439	-0.0356333
51	0x3e05cc79	0.13066281
52	0x3c92facf	0.01794186
53	0x3e067580	0.1313076
54	0x3e03b7b1	0.12863041
55	0xbe098eb3	-0.13433342
56	0xbdd9dd2b	-0.106378876
57	0x3dc36644	0.0954099
58	0x3e193eb0	0.1496532
59	0xbe0a71d2	-0.13519982
60	0x3b17efb2	0.002318364
61	0xbd79723b	-0.060899954
62	0x3e18b586	0.14912996
63	0x3e06befe	0.13158795
64	0x3dec1bc8	0.11528736
65	0x3dae93bc	0.08524272
66	0xbc737053	-0.014858323
67	0x3e15ac2a	0.14616457
68	0xbd97ce59	-0.074124046
69	0x3c0044ce	0.007828904
70	0xbd2ab6f7	-0.041678395
71	0xbdeca8ba	-0.115556195
72	0xbd99bbd6	-0.0750653
73	0x3d1d4fd9	0.038406227
74	0xbc678d9c	-0.014132883
75	0xbdd6e7b2	-0.10493411
76	0xbca4f836	-0.020137887
77	0x3ce01be5	0.027357051
78	0xbde2f908	-0.11082655
79	0x3dc3ebfc	0.09566495
80	0xbe09e6eb	-0.13466994
81	0x3ac6a3b4	0.0015154989
82	0xbe04afdf	-0.12957714
83	0xbe1244bc	-0.14284033
84	0xbca1319a	-0.019676972
85	0x3e133625	0.14376123
86	0x3e195693	0.14974432
87	0x3d693151	0.056931797
88	0x3dfb72e4	0.12277773
89	0xbdb15626	-0.0865901
90	0x3db6a3c4	0.089179546
91	0x3dc5f14b	0.096651636
92	0xbe1b04f3	-0.15138607
93	0xbdf89ab1	-0.1213888
94	0x3d8c2709	0.06843383
95	0x3c6fd170	0.014637336
96	0xbddb95e4	-0.10721949
97	0xbdffffca	-0.1249996
98	0x3dea75a3	0.11448219
99	0x3c8dc16a	0.017304141
100	0xb9b7cbd5	-0.00035056347
101	0xbe1cce27	-0.15313016
102	0x3e0e50e3	0.13898043
103	0xbdd673ed	-0.1047133
104	0x3d908d66	0.070582196
105	0xbc9c07fd	-0.019046778
106	0x3ba9232f	0.005161665
107	0x3d9f4975	0.07777683
108	0xbd2cd666	-0.042196654
109	0xbd3605a3	-0.04443897
110	0x3e014ea0	0.1262765
111	0xbdf89676	-0.12138073
112	0x3d905d4f	0.07049047
113	0xbd2770f5	-0.04087921
114	0xbd58ca33	-0.052927207
115	0x3dd929c3	0.106036685
116	0x3cdb12cd	0.026742363
117	0xbe1703f5	-0.14747603
118	0x3e10f312	0.14155224
119	0xbda0f8b3	-0.078599356
120	0x3e0c394e	0.13693735
121	0xbd4ba066	-0.049713515
122	0x3e1e27be	0.15444848
123	0x3d3f66b0	0.04672879
124	0xbbfabe52	-0.0076520825
125	0x3d77ace2	0.06046761
126	0xbba1691a	-0.004925859
127	0xbda0e672	-0.07856454
128	0x3db173f6	0.08664696
129	0x3dd26ae7	0.10274296
130	0xbca290ad	-0.019844377
131	0x3e1892a2	0.14899686
132	0x3c24d0a4	0.010059509
133	0xbdab9078	-0.083771646
134	0xbdb0c989	-0.0863219
135	0x3dda4560	0.106577635
136	0xbd8369ed	-0.06416688
137	0x3dcce5b8	0.10004753
138	0xbe1d905a	-0.15387097
139	0x3bb2cc45	0.0054564797
140	0xbde02601	-0.10944749
141	0x3d6626c9	0.056189332
142	0x3e03bac6	0.12864217
143	0x3d7f51ea	0.06233398
144	0xbd5f1483	-0.05446292
145	0xbe182aa2	-0.14860013
146	0xbd99b4ac	-0.075051636
147	0xbdbf5723	-0.09342792
148	0x3e1ae451	0.15126158
149	0xbdae6bd9	-0.08516664
150	0x3d7addf1	0.061246816
151	0x3e023611	0.12715937
152	0x3d69e91e	0.057107083
153	0xbe0e558d	-0.13899823
154	0xbc9367bf	-0.017993806
155	0xbd409112	-0.04701335
156	0x3dd1051d	0.102060534
157	0xbc73724f	-0.014858796
158	0xbc08e2e6	-0.008354878
159	0x3e104ac9	0.14091028
160	0x3d1a649c	0.037693605
161	0x3d96615d	0.07342789
162	0xbd50dc25	-0.050991196
163	0x3dd427a2	0.10359122
164	0x3cba9311	0.022775205
165	0xbd025460	-0.031818748
166	0x3cfa12f4	0.030526616
167	0xbdff5bfc	-0.124687165
168	0x3bbedb09	0.005824451
169	0x3d94c6e3	0.07264497
170	0xbe17e29f	-0.14832543
171	0xbdac51c3	-0.08414032
172	0x3dcb3f79	0.09924216
173	0x3b6b6be3	0.003592246
174	0xbbb0cd73	-0.005395585
175	0x3c846c01	0.016164782
176	0xbd9199a2	-0.07109381
177	0x3e06217b	0.1309871
178	0xbc80a9a2	-0.015705887
179	0xbd6c3e8b	-0.057676833
180	0x3daac3e4	0.083381444
181	0xbe070255	-0.13184483
182	0xbcef5add	-0.029218132
183	0x3c82c958	0.015965149
184	0xbd495b2d	-0.049159218
185	0x3db08f9f	0.086211435
186	0xbe0a860a	-0.13527694
187	0xbd3b0c9c	-0.045666322
188	0xbd8858b0	-0.06657541
189	0x3e16174e	0.14657328
190	0x3d817786	0.063216254
191	0xbdf1ffac	-0.11816344
192	0x3d7b7568	0.061391264
193	0xbb5c26b1	-0.0033592398
194	0x3e147c1e	0.14500472
195	0x3db30727	0.087415986
196	0xbdbd7685	-0.092511214
197	0x3e109651	0.14119841
198	0xbce81691	-0.028331073
199	0xbd13bdf1	-0.036069814
200	0x3d420372	0.047366567
201	0x3e2126b3	0.15737419
202	0x3d43c41c	0.047794446
203	0xbe1c814f	-0.15283702
204	0xbd4f1e6f	-0.050566133
205	0x3e170b0d	0.1475031
206	0xbd64ad95	-0.055829603
207	0xbd9c1208	-0.07620627
208	0xbe014a9a	-0.12626114
209	0xbdb31387	-0.08743959
210	0xbdb15e22	-0.086605325
211	0x3d1af4a7	0.037830975
212	0x3d819c0b	0.06328591
213	0x3e1acda1	0.15117504
214	0x3dd4e5ff	0.10395431
215	0x3b1963f4	0.0023405524
216	0x3daef3b3	0.08542576
217	0x3db96d5d	0.090540625
218	0xbe0be808	-0.13662732
219	0x3da3b193	0.07992854
220	0xbdddead2	-0.10835804
221	0x3dfa8398	0.12232131
222	0xbd8d1947	-0.06889587
223	0x3d069f2d	0.032866646
224	0xbadceac6	-0.0016854636
225	0x3d9681ce	0.07348977
226	0x3cc9d544	0.024637826
227	0xbdeb52dd	-0.11490414
228	0x3d836a32	0.064167395
229	0x3dbf5dc4	0.09344056
230	0xbda8f0c9	-0.08249051
231	0xbdd2721c	-0.10275671
232	0xbddce69c	-0.10786173
233	0xbd9dd7a0	-0.07707143
234	0xbca39985	-0.019970665
235	0x3c420c6b	0.011843781
236	0xba927045	-0.0011172375
237	0xbd2b9ac3	-0.04189564
238	0x3dc950a2	0.098298326
239	0x3c09278e	0.008371247
240	0xbdbc5e1a	-0.09197636
241	0xbd2bb57e	-0.04192113
242	0xbdbebb31	-0.09313048
243	0xbd64e4de	-0.055882327
244	0xbe1901b8	-0.14942062
245	0x3ce2bc4b	0.027677676
246	0xbdfb5d1c	-0.122736186
247	0x3d7af092	0.061264582
248	0x3dde3b8a	0.108512
249	0xbdf1567d	-0.117840745
250	0xbdab334f	-0.08359396
251	0xbe0029e1	-0.12515976
252	0x3d2d263e	0.0422728
253	0x3cfb15e8	0.030650094
254	0xbda77179	-0.0817594
255	0x3dc3f80d	0.09568796

model.stmp_conv.cells.0.forget_gate.msg_mlps.0.2.bias f4 [32]
0	0x3d1aa21d	0.03775226
1	0x3d1ad1bd	0.03779768
2	0xbaef74dc	-0.001826908
3	0x3e104aec	0.1409108
4	0x3d024a0d	0.0318089
5	0x3c0c965b	0.008580769
6	0x3ddd6b2c	0.10811457
7	0xbc4ce28b	-0.012505184
8	0xbc27aebc	-0.010234531
9	0xbe05baf9	-0.13059606
10	0xba880754	-0.001037816
11	0xbd976cc0	-0.07393789
12	0x3dbbd3bc	0.091712445
13	0x3e0d1b6a	0.13779989
14	0xbe175321	-0.14777805
15	0xbdbbe6f8	-0.09174913
16	0x3e1c2a13	0.15250425
17	0xbd8a773e	-0.06761025
18	0x3e104108	0.14087307
19	0x3e1fb33f	0.1559572
20	0xbd22b703	-0.039725315
21	0xbe034d90	-0.12822556
22	0x3da23589	0.07920367
23	0x3d937785	0.07200531
24	0x3e0cf503	0.1376534
25	0x3cbb6af8	0.022878155
26	0x3db06598	0.086131275
27	0xbe0b1471	-0.13582017
28	0x3cb2d563	0.021830266
29	0x3d18b434	0.03728123
30	0x3dcb5302	0.09927942
31	0xbdada7e1	-0.08479286

model.stmp_conv.cells.0.forget_gate.lin_edge.weight f4 [32, 1]
0	0xbddb4e7b	-0.10708328
1	0xbf08bb62	-0.53410923
2	0xbf1a61e9	-0.6030565
3	0x3ebefc7e	0.3730201
4	0x3e0bebc5	0.13664158
5	0x3eb64bb1	0.35604623
6	0xbca726fa	-0.020404328
7	0xbcb4533f	-0.022012351
8	0xbd0ceca9	-0.034405384
9	0x3ef7d151	0.48401883
10	0xbf1eb9c0	-0.6200218
11	0x3e45cb56	0.19315848
12	0x3efb90fd	0.49134055
13	0x3f050b9f	0.5197086
14	0xbedc28c2	-0.42999846
15	0x3f31a2ad	0.6938885
16	0xbf18e13c	-0.5971868
17	0x3eef3ab6	0.4672448
18	0x3f3ba4ae	0.73298156
19	0x3ceb87df	0.028751312
20	0x3e8c8d5a	0.27451593
21	0xbf594e6c	-0.8488529
22	0xbeb579d0	-0.35444498
23	0xbeb4405c	-0.35205352
24	0xbf55925d	-0.8342646
25	0xbe424e42	-0.18975165
26	0x3f202497	0.6255583
27	0xbdaf3752	-0.085554734
28	0x3f62adce	0.88546455
29	0xbf4e7dba	-0.80660594
30	0x3eb6f826	0.35736197
31	0x3f465b70	0.7748327

model.stmp_conv.cells.0.forget_gate.gate_mlp.affinity.weight f4 [1, 32]
0	0x3e1da7cc	0.1539604
1	0xbd7baf9a	-0.061446764
2	0xbe1274e9	-0.1430241
3	0xbd6e77fc	-0.058219895
4	0x3df07c8f	0.11742508
5	0x3c6363b3	0.013878751
6	0x3e1b091a	0.1514019
7	0xbdece03d	-0.115662076
8	0xbdcb2367	-0.09918862
9	0x3da553df	0.08072638
10	0x3d5e7736	0.054312907
11	0xbdd2c30a	-0.10291107
12	0x3e16e715	0.14736588
13	0xbd7a39f6	-0.061090432
14	0xbe06ce76	-0.13164696
15	0x3d344f6b	0.04402105
16	0xbdb5be80	-0.088742256
17	0xbd9a60d8	-0.07538003
18	0xbdb53a1a	-0.088489726
19	0x3d307890	0.043083727
20	0x3d97fbbc	0.074210614
21	0x3dda2f8c	0.106536
22	0xbdb79251	-0.089634545
23	0xbd17a23b	-0.03701995
24	0x3e176775	0.1478556
25	0xbda6a534	-0.08136979
26	0xbd6a861b	-0.0572568
27	0xbcf98489	-0.030458705
28	0xbe0fa0e7	-0.14026223
29	0xbdefc755	-0.117079414
30	0x3e108190	0.14111924
31	0x3cef8942	0.029240254

model.stmp_conv.cells.0.forget_gate.skip_conn.weight f4 [32, 64]
0	0x3d35dfe1	0.04440296
1	0x3d8b80a2	0.06811644
2	0x3d9a15d3	0.07523694
3	0x3da44c81	0.080224045
4	0x3d392b64	0.045207396
5	0x3dacedff	0.08443832
6	0x3d95e0d8	0.07318276
7	0xbc996d36	-0.018728834
8	0x3c254cb1	0.010089085
9	0xbd705121	-0.05867112
10	0xbdac9bfd	-0.0842819
11	0x3dd992dc	0.10623714
12	0xbdaad1ca	-0.08340795
13	0xbd8f6886	-0.07002358
14	0xbddd9483	-0.10819342
15	0xbdafb6ff	-0.085798256
16	0x3cd093b8	0.025461063
17	0x3d5c34f4	0.053761438
18	0xbdbf341d	-0.09336112
19	0x3c1208b3	0.008913207
20	0xbda9594a	-0.08268984
21	0x3cadb9a7	0.02120669
22	0x3d890449	0.066902705
23	0xbd300602	-0.04297448
24	0xbd496ac3	-0.04917408
25	0x3d956a41	0.07295657
26	0xbd93d60a	-0.07218559
27	0xbcbb86fc	-0.022891514
28	0xbdbefcde	-0.09325574
29	0x3da0bdc3	0.07848694
30	0x3d125348	0.035723954
31	0xbd36425e	-0.044496886
32	0x3da33e4f	0.07970869
33	0x3dd93221	0.106052645
34	0x3d3b445e	0.045719497
35	0xbda1fdfe	-0.07909773
36	0xbcc8142d	-0.024423683
37	0x3db885ab	0.0900987
38	0x3da6b3bb	0.081397496
39	0xbd16d4c9	-0.03682402
40	0x3d97cb4d	0.074118234
41	0xbd960ec4	-0.07327035
42	0x3cf62272	0.030045722
43	0x3dca3590	0.098734975
44	0x3ca689a7	0.02032931
45	0xbdb64719	-0.089002796
46	0x3d0999d0	0.033593953
47	0x3d7fb078	0.062424153
48	0x3d9f892d	0.07789836
49	0xbd96e536	-0.07367937
50	0xbca4b5a7	-0.02010615
51	0xbbbf0544	-0.005829485
52	0xbca06c78	-0.019582972
53	0xbccba26b	-0.02485772
54	0xbd254f1f	-0.04035866
55	0x3d1dffca	0.038574018
56	0x3d5a03be	0.053226225
57	0xbcb23838	-0.021755323
58	0x3db44288	0.08801752
59	0xba1dca4b	-0.00060192187
60	0x3cdfae1a	0.027304698
61	0x3ce5a342	0.028031949
62	0xbd1c3590	-0.03813702
63	0xbba11df4	-0.004916901
64	0xbc4cf358	-0.01250919
65	0x3d2d8048	0.042358667
66	0xbd767af0	-0.060175836
67	0xbd5299e7	-0.051416304
68	0xbddd6ba9	-0.1081155
69	0xbd479456	-0.04872545
70	0x3d123c24	0.035701886
71	0x3db96995	0.09053341
72	0xbde225f2	-0.11042394
73	0xbd250be5	-0.040294547
74	0x3d905209	0.07046897
75	0xbd781942	-0.060570963
76	0x3d9ae19a	0.07562561
77	0x3b941f51	0.004520335
78	0xbdd7ac7d	-0.105309464
79	0x3c9b2658	0.018939182
80	0xbd897f3a	-0.0671372
81	0x3cb25596	0.021769326
82	0xbdcd89b1	-0.10036028
83	0x3dd78c94	0.1052486
84	0xbd43bef8	-0.047789544
85	0x3d92b5ae	0.07163559
86	0xbd9053e2	-0.070472494
87	0xbdc040dd	-0.09387372
88	0x3d347fbf	0.04406714
89	0x3d89e870	0.06733787
90	0xba840c39	-0.0010074443
91	0xbdc1ff38	-0.09472507
92	0xbcfbb0c8	-0.030723944
93	0xbd9ef67f	-0.07761859
94	0x3d01f531	0.031727973
95	0x3c9492d2	0.018136416
96	0x3d9f688c	0.077836126
97	0x3de4fbae	0.111808166
98	0xbd541536	-0.05177804
99	0x3db53cf8	0.088495195
100	0x3d9f5f59	0.07781858
101	0x3c8d0b40	0.017217278
102	0xbde0e76a	-0.10981639
103	0xbd9f19bf	-0.077685826
104	0x3d47e810	0.048805296
105	0x3daa74b8	0.083230436
106	0x3d75300f	0.059860285
107	0x3c2cf6ce	0.01055689
108	0xbd8b80a2	-0.06811644
109	0xbdc9915f	-0.098421805
110	0xbd8316e6	-0.06400852
111	0x3a5ac9ce	0.0008346111
112	0x3c71e488	0.014763959
113	0x3dafaf67	0.08578377
114	0xbda5722a	-0.08078416
115	0x3d6ff322	0.05858148
116	0x3dc2517f	0.094882004
117	0xbdcf55da	-0.10123797
118	0xbd747420	-0.059681058
119	0xbd0009ad	-0.031259228
120	0x3cb00be2	0.021490041
121	0x3dcd7a36	0.100330755
122	0x3cbb41d9	0.022858547
123	0x3d9b35ea	0.07578643
124	0x3db99b64	0.090628415
125	0x3db41568	0.087931454
126	0xbdd13612	-0.10215391
127	0xbd95de49	-0.07317788
128	0xbbeff96a	-0.0073234336
129	0xb9d64890	-0.00040871324
130	0x3c1ab40d	0.0094423415
131	0x3dc0b541	0.094095714
132	0x3dcfc43d	0.10144851
133	0xbd063b54	-0.032771423
134	0xbd541814	-0.051780775
135	0x3c14a333	0.009072113
136	0x3c683265	0.014172171
137	0x3d8d7891	0.06907762
138	0x3d22fe78	0.03979346
139	0x3d0ef65d	0.03490292
140	0x3d169d78	0.036771268
141	0x3daac9dc	0.08339283
142	0x3d889d9b	0.06670686
143	0xbc34813b	-0.011017139
144	0xbda01072	-0.07815637
145	0x3d9aad21	0.07552553
146	0xbc159df9	-0.009131902
147	0xbda456de	-0.08024381
148	0xbc98ea69	-0.018666463
149	0x3da8c956	0.08241527
150	0xbd52e279	-0.051485512
151	0xbc30f337	-0.010800174
152	0x3d1ac54d	0.037785817
153	0x3da4f32b	0.08054193
154	0xbc895402	-0.01676369
155	0xbda4c512	-0.08045401
156	0xbd3fc949	-0.04682282
157	0xbd1417db	-0.036155563
158	0x3c4831b3	0.0122188805
159	0xbd9bc14a	-0.07605226
160	0x3dca1f18	0.09869212
161	0x3cf1e823	0.029529637
162	0xbda53ece	-0.0806862
163	0x3d7a8abc	0.061167464
164	0x3bb9382c	0.005652448
165	0x3de0704b	0.10958918
166	0xbb138224	-0.002250799
167	0xbac19b57	-0.0014771026
168	0xbddd63e4	-0.10810068
169	0xbdbd7977	-0.09251683
170	0x39cd5db6	0.00039170467
171	0x3dc2ab9b	0.095053874
172	0xbd8ddb29	-0.06926567
173	0x3cb3a732	0.02193031
174	0xbd9e1591	-0.07718957
175	0xbdb1ca6e	-0.086811885
176	0xbd28b1dc	-0.041185245
177	0xbd9992eb	-0.074987255
178	0xbdbdcb8a	-0.092673376
179	0xbd0cd1c3	-0.034379732
180	0xbc7abd3d	-0.015303907
181	0x3d6469e7	0.05576506
182	0x3d52ee2a	0.051496662
183	0xbac0b3cd	-0.0014702022
184	0xbcd19249	-0.02558245
185	0xbcc2ef3f	-0.023795722
186	0xbdbc6ae6	-0.09200077
187	0x3d9f7584	0.07786086
188	0x3dcdc435	0.10047189
189	0xbdd2e5c8	-0.102977335
190	0xbddb06c8	-0.10694653
191	0xbdd6ef18	-0.10494822
192	0xbc93fd6f	-0.018065182
193	0xb98dcd3a	-0.0002704652
194	0xbd95c879	-0.07313628
195	0x3d7d8348	0.061892778
196	0x3bf1b615	0.007376442
197	0xbd6838c6	-0.05669477
198	0xbddde9e9	-0.108356304
199	0x3db2a12a	0.08722146
200	0x3de38448	0.11109215
201	0x3c2a645e	0.010399906
202	0xbd5bb988	-0.053643733
203	0x3d91d6b2	0.07121028
204	0x3d873091	0.0660106
205	0xbc83aada	-0.01607268
206	0x3dd71d84	0.105036765
207	0xbda981a1	-0.08276678
208	0xbc524cfa	-0.012835735
209	0x3dc26656	0.09492175
210	0xbd8def93	-0.06930461
211	0xbd0d8499	-0.034550283
212	0xbd430de7	-0.04762068
213	0xbd3bcfb9	-0.045852397
214	0x3dca0ee5	0.09866122
215	0x3d8d6370	0.06903732
216	0xbdd08b41	-0.101828106
217	0xbd8c4d28	-0.06850654
218	0xbabf9395	-0.0014616126
219	0xbd152c40	-0.036419153
220	0xbd7ca86a	-0.06168405
221	0xbde17b3e	-0.11009835
222	0x3da92e8f	0.082608335
223	0x3d806ebe	0.062711224
224	0x3d051e7f	0.032499786
225	0xbcce7e45	-0.025206694
226	0xbdde5a93	-0.108571194
227	0xbbe5c6f5	-0.007012243
228	0x3d2f6476	0.042820416
229	0xbd0525e0	-0.032506824
230	0x3db48ff6	0.08816521
231	0x3cd1b409	0.025598543
232	0xbbb61dc8	-0.0055577494
233	0x3d3550c2	0.04426647
234	0x3d6f1683	0.05837108
235	0xbda83fb9	-0.08215279
236	0x3d0b83cb	0.034061234
237	0xbdd07e02	-0.10180284
238	0xbcc044c7	-0.023470296
239	0xbd14be55	-0.036314327
240	0x3daf2718	0.085523784
241	0xbddcf3b6	-0.10788672
242	0x3d22ffd7	0.03979477
243	0xbdd1068a	-0.10206325
244	0x3d46e30b	0.04855637
245	0x3ce0b730	0.0274311
246	0xbd348799	-0.04407463
247	0x3d0782e8	0.033083826
248	0x3ddc297b	0.10750099
249	0x3d8ba79c	0.06819078
250	0xbdd14fce	-0.102203
251	0xbcedcb3d	-0.029027576
252	0x3dd013b1	0.10160006
253	0x3c8df555	0.017328897
254	0x3c623e10	0.013808742
255	0x3c02ee9d	0.00799146

model.stmp_conv.cells.0.forget_gate.skip_conn.bias f4 [32]
0	0xbd69b0b0	-0.057053268
1	0x3db1713e	0.08664177
2	0xbcb012b5	-0.021493295
3	0x3ddbb810	0.107284665
4	0xbd86d786	-0.065840766
5	0x3da23bc8	0.079215586
6	0xbd4a9bf2	-0.049465127
7	0x3da23756	0.07920711
8	0x3d7d52fa	0.06184671
9	0x3d38be39	0.045103285
10	0x3d064042	0.032776125
11	0x3d890a7a	0.06691451
12	0xbd36e009	-0.04464725
13	0xbd13ed2f	-0.036114868
14	0x3cf94910	0.030430347
15	0xbda2b404	-0.079444915
16	0x3bda1d16	0.0066562993
17	0x3d3f78ad	0.046745945
18	0xbdd067c6	-0.10176043
19	0xbbc5c131	-0.006034993
20	0x3bcff277	0.0063460427
21	0xbdb09a54	-0.08623186
22	0x3db415b2	0.087932006
23	0x3ba61573	0.005068475
24	0xbdd7db14	-0.10539833
25	0xbd1f22e8	-0.03885165
26	0x3ca647ee	0.02029797
27	0x3da62d2c	0.081140846
28	0xbd142a84	-0.03617336
29	0x3dc8a6d2	0.097974434
30	0xbd420ec3	-0.04737736
31	0xbdb8e9c0	-0.09028959

model.stmp_conv.cells.0.update_gate.msg_mlps.0.0.weight f4 [32, 128]
0	0xbd97ffed	-0.07421861
1	0xbcacc777	-0.021091206
2	0xbde3c8b9	-0.11122269
3	0x3e5d6b96	0.21623072
4	0xbd980220	-0.0742228
5	0xbdfc6dc8	-0.123256266
6	0x3d0da0e7	0.034577277
7	0xbc763207	-0.015026576
8	0x3e0002ee	0.12501118
9	0x3e0dbe80	0.13842201
10	0xbdb43288	-0.087987006
11	0x3c18650e	0.009301437
12	0xbdfa9068	-0.122345746
13	0x3d3dddeb	0.046354216
14	0xbda821b9	-0.08209557
15	0x3a057197	0.00050904736
16	0x3c814a62	0.015782539
17	0x3d11f57c	0.035634503
18	0xbe0fec64	-0.1405502
19	0x3d8f0a2a	0.069843605
20	0xbde0f2e1	-0.109838255
21	0x3d249af2	0.04018683
22	0xbd587458	-0.05284533
23	0xbdab8456	-0.083748505
24	0xbe265a94	-0.1624549
25	0x3daf3687	0.08555322
26	0xbd1cb677	-0.03825995
27	0xbcb1e32a	-0.021714766
28	0xbdc67d13	-0.09691825
29	0xbe4e97e5	-0.2017513
30	0xbd2efe9c	-0.042723283
31	0x38053d77	3.1766915e-05
32	0x3b8c37ee	0.0042791283
33	0xbd73a313	-0.05948169
34	0x3d3ade49	0.045622144
35	0x3d55c665	0.052191157
36	0x3d953ead	0.07287345
37	0x3cc90b86	0.024541628
38	0xbbf50d47	-0.0074783894
39	0xbc62b802	-0.013837816
40	0xbd1a3759	-0.03765044
41	0x3d5ca5fb	0.05386923
42	0x3d33a54a	0.043858804
43	0x3d6a40f6	0.057190858
44	0xbc7bee6a	-0.015376667
45	0xbd601fda	-0.054717876
46	0x3cd867b7	0.026416643
47	0x3d8e2f17	0.069425754
48	0xbc4dd420	-0.012562782
49	0x3d82ff4a	0.06396349
50	0x3d651190	0.055924952
51	0x3ce41d20	0.02784592
52	0xbcaf78f9	-0.021419989
53	0xbcd994ea	-0.026560266
54	0xbc6332b3	-0.013867068
55	0xbbc2c37d	-0.005943714
56	0xbc8589e9	-0.016301112
57	0xbd9e007f	-0.07714938
58	0xbd5e8060	-0.054321647
59	0xbccdc12a	-0.025116522
60	0x3d7947ad	0.06085937
61	0x3d060a55	0.032724697
62	0xbd93ba41	-0.072132595
63	0xbd68409a	-0.056702234
64	0xbdce27d9	-0.10066194
65	0x3de00c23	0.10939815
66	0xbdfd9d02	-0.123834625
67	0x3e64673c	0.22305006
68	0xbd91a9eb	-0.071124874
69	0x3c25d7e5	0.010122274
70	0x3d6149b0	0.055001915
71	0x3c0e138a	0.008671651
72	0x3c39608b	0.011314522
73	0x3dc6aa82	0.097004905
74	0xbd93d77d	-0.072188355
75	0xbd8d2f7a	-0.06893821
76	0xbc8ab8b3	-0.016933775
77	0xbd4357a8	-0.047691017
78	0xbc28de7e	-0.0103069525
79	0xbc3e3b22	-0.011610778
80	0xbd76daef	-0.060267385
81	0x3cde39bc	0.02712714
82	0xbdb14497	-0.086556606
83	0xbc4a5920	-0.012350351
84	0xbd8e2fdd	-0.06942723
85	0xbdd26bce	-0.10274468
86	0x3d2570f8	0.04039094
87	0xbe091252	-0.13385895
88	0xbc90b3c0	-0.017663836
89	0x3e15ce47	0.1462947
90	0x3c086593	0.008324998
91	0x3d52882a	0.051399387
92	0xbcf26934	-0.02959118
93	0xbe4fcd0c	-0.20293063
94	0xbd9889eb	-0.07448181
95	0x3dc82ed9	0.097745605
96	0x3d4477ab	0.047965687
97	0xbc6d683d	-0.014490184
98	0x3b821b0f	0.003970511
99	0xbba6cd67	-0.005090404
100	0xbc928437	-0.01788531
101	0x3d5d55a9	0.05403677
102	0xbd41f41f	-0.047351953
103	0xbd97901d	-0.07400534
104	0xbc5684ed	-0.013093215
105	0xbd3d23b5	-0.04617663
106	0xbd56404c	-0.052307412
107	0xbcba70bf	-0.02275884
108	0xbb47baa5	-0.003047624
109	0x3d5515f4	0.05202289
110	0x3d368e41	0.044569258
111	0x3d84083e	0.064468846
112	0x3d72c875	0.059273202
113	0x3cc32292	0.023820195
114	0xba075adb	-0.000516338
115	0xbb25baf1	-0.0025288428
116	0xbd7637f8	-0.06011197
117	0x3bf768b4	0.0075503234
118	0xbc97b638	-0.018519506
119	0xbcb2b381	-0.02181411
120	0x3d8859b2	0.06657733
121	0x3d14da6a	0.03634111
122	0x3d4b8ae9	0.049693022
123	0x3d518ba3	0.05115856
124	0xbd3bd487	-0.04585698
125	0x3cbb3e01	0.022856714
126	0xbc22c7fc	-0.009935375
127	0x3ce26d41	0.027639987
128	0x3d5037ad	0.050834347
129	0xbd22d5ae	-0.039754562
130	0x3dd6ff23	0.10497882
131	0xbbba48dc	-0.005684955
132	0xbd210ab4	-0.039316848
133	0x3d983717	0.074323826
134	0x3d6300f0	0.055420816
135	0xbd18db71	-0.03731865
136	0x3cccbecc	0.024993323
137	0xbc9c77d2	-0.019100104
138	0xbda55270	-0.08072364
139	0xbdaf7610	-0.085674405
140	0xbc655745	-0.013997857
141	0x3b8690c9	0.004106615
142	0xbd673ac0	-0.056452513
143	0x3d3921f9	0.045198414
144	0x3be00965	0.0068370574
145	0xbd4afc2c	-0.049556896
146	0x3dab1a0d	0.08354578
147	0x3daf13be	0.085486874
148	0x3dcda4de	0.100412115
149	0x3da194ac	0.07889685
150	0xbd804656	-0.062634155
151	0xba34ee60	-0.0006901976
152	0xbd495c4a	-0.04916028
153	0xbd816957	-0.0631892
154	0xbd4bb198	-0.049729913
155	0x3cd6665b	0.026171854
156	0xbce4d82c	-0.02793511
157	0xbdb208c7	-0.086930804
158	0x3d133bf1	0.035945836
159	0x3cdb8ced	0.026800597
160	0xbca5ea55	-0.02025334
161	0xbc93472d	-0.017978275
162	0xbc348fbb	-0.011020596
163	0x3d6ae5dd	0.05734812
164	0x3d6a6af3	0.0572309
165	0xbd1775de	-0.03697764
166	0x3c570f28	0.013126172
167	0xbd9d036e	-0.0766667
168	0xbd562921	-0.052285317
169	0xbbed7ed3	-0.0072477846
170	0xbcd8fa21	-0.026486458
171	0xbd190fca	-0.037368573
172	0x3d854c28	0.06508666
173	0x3d217868	0.03942147
174	0x3bc7f1ed	0.006101838
175	0xbcbf06a6	-0.0233186
176	0x3a9a2f03	0.0011763278
177	0x3d851a16	0.06499116
178	0xbc724cdc	-0.0147888325
179	0x3bc5b9c6	0.006034109
180	0x3cc8f3d4	0.024530329
181	0x3d40204c	0.0469058
182	0x3d46b2df	0.04851043
183	0xbd17e1b7	-0.037080493
184	0x3cff0529	0.03113039
185	0x3c4e749e	0.012601046
186	0x3c3aefed	0.011409742
187	0xbd8bc582	-0.06824781
188	0x3d9619dc	0.07329151
189	0x3d10ad88	0.035321742
190	0x3c182a1a	0.009287382
191	0x3cf94d9a	0.030432511
192	0xbc8f87b3	-0.017520761
193	0xbd93767e	-0.07200335
194	0x3caf0173	0.021362996
195	0xbdaa7904	-0.08323863
196	0x3d364851	0.04450256
197	0x3d6cfa97	0.05785617
198	0x3c76b06a	0.015056709
199	0xbd88a6bc	-0.06672427
200	0xbd9e5fbe	-0.07733105
201	0x3d3043a5	0.04303326
202	0xbe0b84a7	-0.13624822
203	0xbc461077	-0.012088886
204	0x3da0164b	0.07816752
205	0xbd9e3db1	-0.077266105
206	0x3cf2565c	0.029582195
207	0xbcc35341	-0.02384341
208	0xbcdfffe7	-0.027343703
209	0x3d0f264e	0.03494864
210	0x3dc39c99	0.09551353
211	0x3da856d2	0.08219685
212	0x3dca6df5	0.09884254
213	0xbd831fbe	-0.06402539
214	0xbcda2008	-0.026626602
215	0xbd955c02	-0.0729294
216	0x3ccc54d4	0.024942793
217	0xbb71bda8	-0.0036886726
218	0x3d0325eb	0.032018583
219	0xbb6ff2c7	-0.0036613212
220	0x3dca0be4	0.09865549
221	0xbd17afed	-0.03703301
222	0xbd8bb571	-0.068217166
223	0xbd82918d	-0.06375418
224	0xba92158b	-0.0011145336
225	0xbd91ad13	-0.071130894
226	0x3d89bf27	0.067259125
227	0xbd42c52f	-0.04755133
228	0xbd762644	-0.060095087
229	0x3d9df72a	0.077131584
230	0xbd4ffff0	-0.05078119
231	0xbd10cf6e	-0.03535407
232	0x3aaf0bc5	0.0013354948
233	0x3ccee6a3	0.02525646
234	0xbce89996	-0.028393548
235	0x3d2da5f5	0.042394597
236	0xbd4fad62	-0.05070246
237	0x3c7bf034	0.015377093
238	0xbd9f9611	-0.07792295
239	0xbd91a3af	-0.07111298
240	0x3ce5b2b8	0.028039321
241	0x3d1bf265	0.038072962
242	0xbd10dd48	-0.03536728
243	0x3ce3b88e	0.027797963
244	0xbca9ac9e	-0.020712193
245	0x3d35398a	0.044244327
246	0x3c0db270	0.0086485
247	0xbc8f599e	-0.017498787
248	0x3c768b33	0.015047836
249	0xbd99f17d	-0.07516763
250	0x3d35b88b	0.044365447
251	0x3d95ec86	0.07320504
252	0x3d8a5958	0.06755322
253	0xbd3ae442	-0.04562784
254	0xbd029ee2	-0.031889804
255	0xbd0e22ff	-0.034701344

model.stmp_conv.cells.0.update_gate.msg_mlps.0.0.bias f4 [32]
0	0xbf1ccd83	-0.61251086
1	0xbe98b6bf	-0.29826924
2	0xbf507e3f	-0.81442636
3	0xbebfd168	-0.37464452
4	0x3f3f6feb	0.7478015
5	0xbf2fddb1	-0.6869765
6	0xbeb998d3	-0.36249408
7	0xbf819eaa	-1.0126545
8	0xbee4ace1	-0.44663146
9	0x3e095cac	0.13414258
10	0x3f612144	0.87941384
11	0xbf9d1f35	-1.2275149
12	0xbeccc372	-0.39992863
13	0xbee1e48a	-0.44119674
14	0x3e806267	0.25075075
15	0xbdf54193	-0.11975398
16	0xbf4619a4	-0.77382874
17	0x3c509828	0.012731589
18	0x3e6c367d	0.2306766
19	0xbfa9a473	-1.3253311
20	0xbef6933c	-0.48159206
21	0xbf847e38	-1.0351019
22	0xbf67f37d	-0.9060591
23	0xbf1af482	-0.6052934
24	0xbf330a29	-0.6993738
25	0x3cc52b51	0.024068506
26	0xbf082a81	-0.53189856
27	0xbeb6f473	-0.35733375
28	0xbf1c734b	-0.61113423
29	0x3f5e8b19	0.86930996
30	0xbf3563bd	-0.70855314
31	0xbf0ff458	-0.56232214
